FOLD 0
Let's use 10 GPUs!
####### total m2p2 hyper-parameters  924577
LatentModel(
  (feat_exa): InputEmb(
    (conv1): Conv1d(73, 32, kernel_size=(28,), stride=(3,))
    (bn): BatchNorm1d(32, eps=1e-05, momentum=0.1, affine=True, track_running_stats=True)
    (ln): LayerNorm((32,), eps=1e-05, elementwise_affine=True)
  )
  (transformer_emb): TransformerEmb(
    (pos_encoder): PositionalEncoding(
      (dropout): Dropout(p=0.4, inplace=False)
    )
    (transformer_encoder): TransformerEncoder(
      (layers): ModuleList(
        (0): TransformerEncoderLayer(
          (self_attn): MultiheadAttention(
            (out_proj): _LinearWithBias(in_features=32, out_features=32, bias=True)
          )
          (linear1): Linear(in_features=32, out_features=16, bias=True)
          (dropout): Dropout(p=0.4, inplace=False)
          (linear2): Linear(in_features=16, out_features=32, bias=True)
          (norm1): LayerNorm((32,), eps=1e-05, elementwise_affine=True)
          (norm2): LayerNorm((32,), eps=1e-05, elementwise_affine=True)
          (dropout1): Dropout(p=0.4, inplace=False)
          (dropout2): Dropout(p=0.4, inplace=False)
        )
      )
    )
  )
)
70992
LatentModel(
  (feat_exa): InputEmb(
    (conv1): Conv1d(512, 32, kernel_size=(30,), stride=(5,))
    (bn): BatchNorm1d(32, eps=1e-05, momentum=0.1, affine=True, track_running_stats=True)
    (ln): LayerNorm((32,), eps=1e-05, elementwise_affine=True)
  )
  (transformer_emb): TransformerEmb(
    (pos_encoder): PositionalEncoding(
      (dropout): Dropout(p=0.4, inplace=False)
    )
    (transformer_encoder): TransformerEncoder(
      (layers): ModuleList(
        (0): TransformerEncoderLayer(
          (self_attn): MultiheadAttention(
            (out_proj): _LinearWithBias(in_features=32, out_features=32, bias=True)
          )
          (linear1): Linear(in_features=32, out_features=16, bias=True)
          (dropout): Dropout(p=0.4, inplace=False)
          (linear2): Linear(in_features=16, out_features=32, bias=True)
          (norm1): LayerNorm((32,), eps=1e-05, elementwise_affine=True)
          (norm2): LayerNorm((32,), eps=1e-05, elementwise_affine=True)
          (dropout1): Dropout(p=0.4, inplace=False)
          (dropout2): Dropout(p=0.4, inplace=False)
        )
      )
    )
  )
)
497104
LatentModel(
  (feat_exa): InputEmb(
    (conv1): Conv1d(200, 32, kernel_size=(34,), stride=(9,))
    (bn): BatchNorm1d(32, eps=1e-05, momentum=0.1, affine=True, track_running_stats=True)
    (ln): LayerNorm((32,), eps=1e-05, elementwise_affine=True)
  )
  (transformer_emb): TransformerEmb(
    (pos_encoder): PositionalEncoding(
      (dropout): Dropout(p=0.4, inplace=False)
    )
    (transformer_encoder): TransformerEncoder(
      (layers): ModuleList(
        (0): TransformerEncoderLayer(
          (self_attn): MultiheadAttention(
            (out_proj): _LinearWithBias(in_features=32, out_features=32, bias=True)
          )
          (linear1): Linear(in_features=32, out_features=16, bias=True)
          (dropout): Dropout(p=0.4, inplace=False)
          (linear2): Linear(in_features=16, out_features=32, bias=True)
          (norm1): LayerNorm((32,), eps=1e-05, elementwise_affine=True)
          (norm2): LayerNorm((32,), eps=1e-05, elementwise_affine=True)
          (dropout1): Dropout(p=0.4, inplace=False)
          (dropout2): Dropout(p=0.4, inplace=False)
        )
      )
    )
  )
)
223184
BiAttnModel(
  (trans_a_with_v): CrossAttnModel(
    (ln_alpha): LayerNorm((32,), eps=1e-05, elementwise_affine=True)
    (ln_beta): LayerNorm((32,), eps=1e-05, elementwise_affine=True)
    (weightQ): Linear(in_features=32, out_features=32, bias=False)
    (weightK): Linear(in_features=32, out_features=32, bias=False)
    (weightV): Linear(in_features=32, out_features=32, bias=False)
    (ln): LayerNorm((32,), eps=1e-05, elementwise_affine=True)
    (fc1): Linear(in_features=32, out_features=128, bias=True)
    (fc2): Linear(in_features=128, out_features=32, bias=True)
    (dropout): Dropout(p=0.4, inplace=False)
  )
  (trans_a_with_l): CrossAttnModel(
    (ln_alpha): LayerNorm((32,), eps=1e-05, elementwise_affine=True)
    (ln_beta): LayerNorm((32,), eps=1e-05, elementwise_affine=True)
    (weightQ): Linear(in_features=32, out_features=32, bias=False)
    (weightK): Linear(in_features=32, out_features=32, bias=False)
    (weightV): Linear(in_features=32, out_features=32, bias=False)
    (ln): LayerNorm((32,), eps=1e-05, elementwise_affine=True)
    (fc1): Linear(in_features=32, out_features=128, bias=True)
    (fc2): Linear(in_features=128, out_features=32, bias=True)
    (dropout): Dropout(p=0.4, inplace=False)
  )
  (trans_v_with_a): CrossAttnModel(
    (ln_alpha): LayerNorm((32,), eps=1e-05, elementwise_affine=True)
    (ln_beta): LayerNorm((32,), eps=1e-05, elementwise_affine=True)
    (weightQ): Linear(in_features=32, out_features=32, bias=False)
    (weightK): Linear(in_features=32, out_features=32, bias=False)
    (weightV): Linear(in_features=32, out_features=32, bias=False)
    (ln): LayerNorm((32,), eps=1e-05, elementwise_affine=True)
    (fc1): Linear(in_features=32, out_features=128, bias=True)
    (fc2): Linear(in_features=128, out_features=32, bias=True)
    (dropout): Dropout(p=0.4, inplace=False)
  )
  (trans_v_with_l): CrossAttnModel(
    (ln_alpha): LayerNorm((32,), eps=1e-05, elementwise_affine=True)
    (ln_beta): LayerNorm((32,), eps=1e-05, elementwise_affine=True)
    (weightQ): Linear(in_features=32, out_features=32, bias=False)
    (weightK): Linear(in_features=32, out_features=32, bias=False)
    (weightV): Linear(in_features=32, out_features=32, bias=False)
    (ln): LayerNorm((32,), eps=1e-05, elementwise_affine=True)
    (fc1): Linear(in_features=32, out_features=128, bias=True)
    (fc2): Linear(in_features=128, out_features=32, bias=True)
    (dropout): Dropout(p=0.4, inplace=False)
  )
  (trans_l_with_a): CrossAttnModel(
    (ln_alpha): LayerNorm((32,), eps=1e-05, elementwise_affine=True)
    (ln_beta): LayerNorm((32,), eps=1e-05, elementwise_affine=True)
    (weightQ): Linear(in_features=32, out_features=32, bias=False)
    (weightK): Linear(in_features=32, out_features=32, bias=False)
    (weightV): Linear(in_features=32, out_features=32, bias=False)
    (ln): LayerNorm((32,), eps=1e-05, elementwise_affine=True)
    (fc1): Linear(in_features=32, out_features=128, bias=True)
    (fc2): Linear(in_features=128, out_features=32, bias=True)
    (dropout): Dropout(p=0.4, inplace=False)
  )
  (trans_l_with_v): CrossAttnModel(
    (ln_alpha): LayerNorm((32,), eps=1e-05, elementwise_affine=True)
    (ln_beta): LayerNorm((32,), eps=1e-05, elementwise_affine=True)
    (weightQ): Linear(in_features=32, out_features=32, bias=False)
    (weightK): Linear(in_features=32, out_features=32, bias=False)
    (weightV): Linear(in_features=32, out_features=32, bias=False)
    (ln): LayerNorm((32,), eps=1e-05, elementwise_affine=True)
    (fc1): Linear(in_features=32, out_features=128, bias=True)
    (fc2): Linear(in_features=128, out_features=32, bias=True)
    (dropout): Dropout(p=0.4, inplace=False)
  )
  (fc1): Linear(in_features=64, out_features=64, bias=True)
  (fc2): Linear(in_features=64, out_features=1, bias=False)
)
73920
TriAttnModel(
  (fc1): Linear(in_features=64, out_features=32, bias=True)
  (fc2): Linear(in_features=64, out_features=32, bias=True)
  (fc3): Linear(in_features=64, out_features=32, bias=True)
)
6240
PersModel(
  (fc1): Linear(in_features=162, out_features=324, bias=True)
  (dropout): Dropout(p=0.4, inplace=False)
  (fc2): Linear(in_features=324, out_features=1, bias=True)
  (sigm): Sigmoid()
)
53137
[SAVE MODEL] eval pers loss: 0.02500	mini pers loss: 100000.00000	eval acc: 0.1321	max_acc: 0.0000
Epoch: 01/40 | Time: 0m 15s
	Train persuasion loss:0.02450	Train MAE Loss:0.12808
	Eval persuasion loss:0.02500	Eval MAE Loss:0.13209
[SAVE MODEL] eval pers loss: 0.02110	mini pers loss: 0.02500	eval acc: 0.1159	max_acc: 0.1321
Epoch: 02/40 | Time: 0m 9s
…
